other/autoencoder.pt (torch, 97078 bytes, 16 tensors)

weight f4 [128, 3]
-0.66391397 -0.24976283 0.111078225 -0.50459903 -0.21869838 0.59167475 -0.7373508 -0.2088177
0.113725014 -0.7448698 -0.2709199 0.10360719 -0.6505281 -0.8778685 -0.3031885 0.006224885
-0.30011603 0.30569512 -0.63840276 -0.6092196 -0.13274115 0.4026034 0.16930246 -0.4809727
0.34620503 0.3723553 0.048134282 0.30760586 0.3479764 -0.2566807 -0.65714103 -0.13734166
0.004667219 0.1448256 -0.29805562 -0.015897082 0.7676659 0.061375555 0.03409624 -0.6756376
0.10498355 0.43675616 -0.4916166 0.68924695 0.20759006 -0.6536895 0.18614955 -0.043883316
0.5761345 0.03714598 0.27525225 -0.29563478 -1.1548508 0.1237545 -0.7657379 0.10654534
-0.0765756 0.50204307 0.12921675 -0.029689858 0.5785468 1.0724871 -0.26837787 -0.41880304
-0.20752814 0.05658574 0.046101443 -0.29439932 0.1303921 -1.0385182 -0.29976267 0.17750205
-0.7470453 -0.07589585 -0.0140920095 -0.80684936 -0.3971332 -0.014617794 0.7104388 0.11035393
-4.5348614e-05 -0.49056813 0.08478491 0.25010523 0.66070724 0.29382974 -0.097240165 0.46303177
0.14645131 -0.27270427 0.17834434 -0.5109534 -0.40615764 0.5960729 0.096346244 0.06539851
-0.460288 0.04181367 -0.18212625 -0.701928 -0.056792386 -0.032222968 -0.45393577 -0.27317593
0.043678604 0.34899557 0.024314621 -0.13536862 0.62695485 -0.001666139 0.34949127 0.3592782
0.4208053 0.39302108 0.44886708 0.083649784 -0.34960422 -0.7435632 -0.20225368 0.043963004
-0.506779 -0.2234184 -0.048503213 -0.8113578 -0.06730199 -0.044843104 -0.43468815 -1.0675814
0.124323174 0.79790026 -0.12092086 0.09063784 -0.34081697 -0.40502214 -0.38514364 -0.045572497
0.4969966 0.5831198 -0.085036285 -0.37175447 -0.24461317 0.2629325 0.5044678 0.41059217
0.014951851 0.7125816 0.09865772 0.40865952 -0.021239609 0.75345737 0.057705726 0.1518323
0.37522534 0.2299108 0.38866264 0.54825276 -0.07437005 0.11183368 0.32586116 0.50481266
0.013553689 0.23328628 0.5346106 -0.015454317 0.227846 0.11486316 -0.10392233 0.5238572
0.23546883 -0.12357206 -0.35336655 -0.34014943 0.21031396 0.34108174 0.058376804 0.4261722
0.46497265 0.028549308 0.14598171 -0.2953183 0.8316813 0.085962504 -0.258796 0.21651435
0.028533747 -0.07229295 -0.4676092 0.278049 0.5659275 0.48988622 0.054042287 -0.34452954
0.8634959 0.3239075 -0.23689632 -0.75865346 -0.06802815 -0.04205458 -0.64330626 -0.051396586
-0.013454839 0.8253296 -0.3257025 0.124041475 0.17137481 0.2803777 -0.36153027 0.45872626
-0.0114586 0.15365073 0.16725437 -0.2069812 -0.35097095 -0.22718805 -0.747751 0.1918571
0.5396719 -0.3784895 -0.16538538 -0.6063191 -0.084283225 -0.030681698 0.74643785 -0.08469487
0.059882086 -0.14981468 -0.22081889 -0.3039946 0.2356676 0.20241703 0.16149738 -0.6668835
-0.12173555 -0.007552913 -0.08747157 0.12196881 0.40971693 -0.6207586 0.012860102 -0.2810703
0.4001789 0.32125318 0.22594075 0.115307085 -0.5926972 -0.17258 -0.16100986 0.94689226
0.07170658 0.13234958 -0.08170192 -0.44429475 0.6621483 0.013066439 0.062877715 0.7912284
00000000: 44f6 29bf d4c1 7fbe fb7c e33d 672d 01bf
00000010: 78f2 5fbe ff77 173f 06c3 3cbf 4fd4 55be
00000020: a9e8 e83d caaf 3ebf 03b6 8abe 0230 d43d
00000030: 0289 26bf fdbb 60bf 863b 9bbe 1ffa cb3b
00000040: cfa8 99be 1284 9c3e 5d6e 23bf d1f5 1bbf
00000050: 4ced 07be 0822 ce3e a05d 2d3e 0e42 f6be
00000060: c941 b13e 5ba5 be3e 7428 453d 847e 9d3e
00000070: f629 b23e a76b 83be 653a 28bf 4ba3 0cbe
00000080: 78ef 983b 294d 143e bf9a 98be 993a 82bc
00000090: c185 443f ef64 7b3d 80a8 0b3d 96f6 2cbf
000000a0: 9e01 d73d 819e df3e 2cb5 fbbe 7d72 303f
000000b0: 7d92 543e 3258 27bf fd9d 3e3e febe 33bd
000000c0: 8d7d 133f 6226 183d dded 8c3e 715d 97be
000000d0: 27d2 93bf 0073 fd3d 6607 44bf 7134 da3d
000000e0: abd3 9cbd e585 003f 6551 043e 2538 f3bc
000000f0: a51b 143f 4247 893f d368 89be 5a6d d6be
00000100: 4282 54be 73c6 673d ded4 3c3d 82bb 96be
00000110: 8285 053e 2aee 84bf 7e7a 99be 19c3 353e
00000120: 5c3e 3fbf 496f 9bbd 2ce2 66bc ae8d 4ebf
00000130: 0b55 cbbe 797f 6fbc 51df 353f 3e01 e23d
00000140: b434 3eb8 bf2b fbbe b6a3 ad3d cb0d 803e
00000150: 1c24 293f da70 963e da25 c7bd 8012 ed3e
00000160: 55f7 153e e59f 8bbe e69f 363e d8cd 02bf
00000170: e5f3 cfbe 3c98 183f 2e51 c53d a7ef 853d
00000180: deaa ebbe d044 2b3d 4e7f 3abe 8eb1 33bf
00000190: 229f 68bd 3bfc 03bd 456a e8be b7dd 8bbe
000001a0: 56e8 323d 8caf b23e 752f c73c 129e 0abe
000001b0: 1d80 203f 5962 daba 85f0 b23e 50f3 b73e
000001c0: cb73 d73e 0f3a c93e e8d1 e53e 9450 ab3d
000001d0: 53ff b2be 285a 3ebf 971b 4fbe 8d12 343d
000001e0: 45bc 01bf cbc7 64be 4eab 46bd 25b5 4fbf
000001f0: a0d5 89bd 67ad 37bd 728f debe 82a6 88bf
00000200: 269d fe3d 3143 4c3f 5ba5 f7bd 55a0 b93d
00000210: 907f aebe 105f cfbe 8c31 c5be 3aaa 3abd
00000220: 5776 fe3e 5747 153f 8127 aebd 9a56 bebe
00000230: e07b 7abe 179f 863e cd24 013f 2339 d23e
00000240: 9cf8 743c bf6b 363f 0f0d ca3d d23b d13e
00000250: b0fe adbc 95e2 403f d75c 6c3d ed79 1b3e
00000260: 891d c03e bd6d 6b3e cafe c63e 4b5a 0c3f
00000270: 534f 98bd 0e09 e53d 46d7 a63e 673b 013f
00000280: 4b10 5e3c 99e2 6e3e 3edc 083f 1b34 7dbc
00000290: 7650 693e 603d eb3d 3bd5 d4bd 811b 063f
000002a0: be1e 713e 5913 fdbd 76ec b4be 1128 aebe
000002b0: 8b5c 573e 44a2 ae3e 841c 6f3d 3e33 da3e
000002c0: e510 ee3e 3de0 e93c 3b7c 153e f633 97be
000002d0: 11e9 543f 1c0d b03d e980 84be f0b5 5d3e
000002e0: 9bbf e93c 530e 94bd 796a efbe 705c 8e3e
000002f0: a0e0 103f 5ed2 fa3e 725b 5d3d 2d66 b0be
00000300: 110e 5d3f 34d7 a53e f394 72be 1d37 42bf
00000310: 5852 8bbd 6c41 2cbd b8af 24bf 3a85 52bd
00000320: af71 5cbc cd48 533f 7ac2 a6be 7509 fe3d
00000330: e17c 2f3e aa8d 8f3e 7f1a b9be 2bde ea3e
00000340: dabc 3bbc 9e56 1d3e bb44 2b3e e1f2 53be
00000350: 77b2 b3be fca3 68be 9c6c 3fbf 3076 443e
00000360: f027 0a3f 60c9 c1be c95a 29be bb37 1bbf
00000370: af9c acbd 2f58 fbbc 8d16 3f3f 8174 adbd
00000380: eb46 753d 0569 19be 591e 62be 2ea5 9bbe
00000390: d952 713e 6946 4f3e 925f 253e e1b8 2abf
000003a0: 7d50 f9bd 6d7e f7bb 4b24 b3bd c9ca f93d
000003b0: 6bc6 d13e 09ea 1ebf 2db3 523c 72e8 8fbe
000003c0: 40e4 cc3e 4c7b a43e 035d 673e 1f26 ec3d
000003d0: 01bb 17bf d0b8 30be c5df 24be 8867 723f
000003e0: e6da 923d a686 073e 5653 a7bd 9a7a e3be
000003f0: 8d82 293f 9e14 563c 08c6 803d f28d 4a3f

bias f4 [128]
0.24976052 0.44690445 -0.033535823 0.52888954 -0.74364525 0.79941183 -0.4166234 -0.68585193
0.3544402 -0.05403328 1.1023294 0.43246135 -1.2853208 -0.56985676 -0.06887143 0.8593305
-0.78901553 -0.07517721 0.8025388 -0.091367535 -0.07348605 0.24627542 1.1366483 0.33880305
1.1811377 0.38555437 -1.072902 0.3580764 -0.57995915 0.7941469 -0.09696692 -1.1591703
0.48714003 1.2120454 -0.07285325 0.0051274155 -0.9885488 0.5910828 -0.99980533 0.9056177
-0.2470304 1.4153754 -0.31944525 -0.88589126 -0.7697075 0.59834576 -0.637387 -1.2134742
0.12211023 -0.59447086 1.1566002 -0.060983844 0.55785954 -0.8561093 -0.87085736 -0.4027016
-0.49289888 -0.4286936 -0.6439561 -1.0007272 -0.27910414 0.13057013 -0.5534399 -0.09565979
0.0639651 1.0813922 0.9827738 -0.58020014 -0.33866748 -0.6443251 -0.36644968 -0.765058
-0.3580245 0.26682863 -0.9097047 -0.03105078 0.13442871 1.2161448 1.0288959 0.88523865
-1.4842552 0.73097104 -0.19726798 -1.1264681 -0.8151819 -1.3105319 0.35130548 -0.8266871
-0.004634994 1.4044778 -0.62428766 -0.88856924 -0.9994994 0.45850927 -0.25846192 0.10695199
-0.80984026 -0.97187734 1.147668 -0.9514854 0.71049273 -0.16218454 -0.6096269 -0.99614084
1.0700305 0.31079277 -0.8211791 0.44132495 0.9273459 0.38281563 -0.34356546 1.0911039
-0.5930684 0.8381684 -0.9492527 1.0809803 -0.8910898 -0.38199022 0.82388055 -0.8497473
-0.4107383 -0.11785095 1.1175685 -0.79866976 -0.41414377 0.17842686 1.4418497 0.15351924
00000000: 39c1 7f3e a9d0 e43e dc5c 09bd 4e65 073f
00000010: 895f 3ebf 41a6 4c3f aa4f d5be fe93 2fbf
00000020: 3079 b53e 0052 5dbd 2119 8d3f 936b dd3e
00000030: 6485 a4bf 22e2 11bf 770c 8dbd 15fd 5b3f
00000040: ecfc 49bf 82f6 99bd 2f73 4d3f e71e bbbd
00000050: db7f 96bd a02f 7c3e b17d 913f 9877 ad3e
00000060: 852f 973f 6267 c53e da54 89bf ca55 b73e
00000070: 3478 14bf 364d 4b3f 9896 c6bd b15f 94bf
00000080: 6b6a f93e 4e24 9b3f 1634 95bd e103 a83b
00000090: 8911 7dbf 3451 173f 3ef3 7fbf 90d6 673f
000000a0: 8af5 7cbe 052b b53f 548e a3be c5c9 62bf
000000b0: 8d0b 45bf 302d 193f cb2b 23bf 1f53 9bbf
000000c0: ee14 fa3d 3e2f 18bf 7a0b 943f 32ca 79bd
000000d0: e2cf 0e3f fb29 5bbf 82f0 5ebf e72e cebe
000000e0: 3e5d fcbe ba7d dbbe 4fda 24bf d417 80bf
000000f0: bde6 8ebe 2db4 053e 3dae 0dbf 48e9 c3bd
00000100: 2200 833d 0f6b 8a3f 1097 7b3f ff87 14bf
00000110: d365 adbe 7df2 24bf 4b9f bbbe d7da 43bf
00000120: fd4e b7be c39d 883e 68e2 68bf 355e febc
00000130: aea7 093e a2aa 9b3f dcb2 833f 009f 623f
00000140: 13fc bdbf eb20 3b3f 9e00 4abe 1b30 90bf
00000150: c3af 50bf 82bf a7bf 50de b33e c4a1 53bf
00000160: 26e1 97bb eec5 b33f 51d1 1fbf 4679 63bf
00000170: 31df 7fbf bac1 ea3e 1f55 84be a509 db3d
00000180: b151 4fbf f4cc 78bf c9e6 923f 8c94 73bf
00000190: dae2 353f b413 26be 8210 1cbf 1603 7fbf
000001a0: c2f6 883f 3b20 9f3e cb38 52bf 58f5 e13e
000001b0: 8a66 6d3f 6900 c43e d0e7 afbe 4ba9 8b3f
000001c0: 55d3 17bf 3492 563f 3a02 73bf 905d 8a3f
000001d0: 761e 64bf 3994 c3be d6e9 523f 0a89 59bf
000001e0: 4a4c d2be d75b f1bd 7c0c 8f3f 9f75 4cbf
000001f0: a70a d4be 88b5 363e 888e b83f 2634 1d3e

weight f4 [64, 128]
0.18382402 0.13994347 -0.04687297 0.37632373 -0.03372009 0.26571864 0.09280997 -0.27723616
0.014116652 -0.09057459 0.38720796 -0.2670863 -0.73047334 -0.056886997 0.31419387 0.56297344
-0.2659846 -0.05486224 0.7724419 -0.2155998 0.07243257 0.2922874 0.08022317 0.22092521
0.6315784 0.158748 -0.5601967 0.09879557 -0.12302214 -0.22800542 -0.020592116 -0.28500345
0.2555491 0.7483087 -0.115042195 -0.0035277302 -0.31241497 0.028834801 -0.34140056 0.3772922
0.26149786 0.74384856 0.01334175 -0.8304462 0.060132068 0.042045154 -0.0582774 0.10838381
0.0303672 -0.35919887 0.36062375 -0.0035671396 -0.0018169931 -0.44433337 -0.6628757 -0.21203813
-0.23540801 -0.06689746 0.03018919 -0.275893 -0.19443516 0.032017037 -0.06110351 -0.12088589
-0.17106363 0.52179676 0.655769 -0.5016611 -0.06551019 -0.29989347 -0.19420668 0.12854555
-0.30734316 0.35428295 -0.8210395 0.13198607 -0.024767922 0.39959097 0.26391786 0.36918384
0.07185704 -0.14094877 0.23197354 -0.19591047 -0.5993968 -0.51411337 0.25578812 -0.42094278
0.27385616 0.26487434 -0.10402172 -0.37897578 -0.1686219 -0.04914525 -0.19710514 -0.070384234
-0.4474194 -0.22208607 -0.25875852 -0.09591966 0.09546058 0.03034258 -0.078175485 -0.5198518
0.7520764 -0.11608349 -0.41358757 -0.0595427 0.26021168 -0.28357434 -0.10115295 0.6952374
-0.2582611 -0.13087595 -0.11791515 0.2694294 0.016414553 -0.3040437 0.6471749 -0.29623893
-0.08400962 -0.23237704 0.8051147 -0.23731956 0.023747442 -0.0515707 0.34120142 -0.030442549
-0.04627805 0.055920616 0.08907773 -0.07902914 -0.0055957935 0.35137507 -0.12964076 -0.08021194
0.37559524 0.084472686 0.16327566 -0.023564072 -0.23647086 -0.10445818 0.28335205 0.25121593
0.094709136 0.14273459 0.1134827 -0.1961544 -0.05185085 -0.122008555 0.16311783 -0.25271562
0.24917445 0.0037516805 0.037101433 -0.11699592 0.3473119 -0.009435122 -0.14057292 -0.06774053
-0.19494998 0.23723467 -0.40771806 -0.100494854 -0.035322692 0.20717725 -0.118725814 -0.19691192
-0.20561762 0.1713458 0.07416194 -0.21463664 -0.31860575 0.024842571 0.17479812 -0.1589505
-0.10141464 0.010312057 0.48305717 -0.22362126 0.3203083 -0.09887228 0.18426363 0.0655209
-0.30383545 -0.082457535 0.10174375 -0.3693644 -0.025728013 -0.028692104 -0.029524457 -0.09760678
0.1840856 -0.258701 0.1078187 -0.2966361 -0.06590856 0.10095856 -0.32238236 -0.20574343
-0.20968173 -0.18858354 -0.1895141 -0.27961567 0.2746375 0.24736121 0.4738556 0.0401931
-0.26438755 -0.06308015 0.051410787 -0.44361028 0.14473 -0.06165651 -0.18567076 0.24382468
0.16199555 0.54958934 -0.025181968 0.23350275 0.1803021 0.14820948 0.2192317 0.3341668
-0.025475217 -0.15601844 0.21166545 -0.111776955 0.25804812 0.10301627 0.17101085 -0.18941604
0.19828415 -0.012449931 0.23349535 -0.066181235 0.23579894 0.055248287 -0.25609368 -0.15747954
-0.36572325 0.30833203 -0.04060219 0.5280862 0.13572171 -0.008635241 0.08964589 -0.22396813
-0.2579296 0.41932815 0.35177603 -0.44085905 -0.18412912 0.016841684 0.7144822 0.21231864
00000000: 5d3c 3c3e 574d 0f3e dffd 3fbd 81ad c03e
00000010: 141e 0abd 460c 883e 2713 be3d e6f1 8dbe
00000020: 8849 673c 2c7f b9bd 1f40 c63e 89bf 88be
00000030: 4d00 3bbf 5702 69bd 05de a03e 071f 103f
00000040: 222f 88be 3ab7 60bd c1be 453f 32c6 5cbe
00000050: 8757 943d b2a6 953e 0c4c a43d 383a 623e
00000060: 1faf 213f d68e 223e 0d69 0fbf 5555 ca3d
00000070: 08f3 fbbd 417a 69be ccb0 a8bc f9eb 91be
00000080: 55d7 823e 2991 3f3f 3e9b ebbd 7e31 67bb
00000090: dbf4 9fbe f636 ec3c 0ecc aebe 712c c13e
000000a0: 0ce3 853e dc6c 3e3f 5b97 5a3c 1f98 54bf
000000b0: 0b4d 763d 8a37 2c3d 48b4 6ebd 55f8 dd3d
000000c0: a2c4 f83c eae8 b7be ada3 b83e acc6 69bb
000000d0: 2c28 eeba aa7f e3be 39b2 29bf 8620 59be
000000e0: cc0e 71be 8901 89bd 524f f73c d941 8dbe
000000f0: 031a 47be 4c24 033d ad47 7abd 0693 f7bd
00000100: 4e2b 2fbe 7994 053f 7ae0 273f dd6c 00bf
00000110: 352a 86bd a38b 99be 1ede 46be 72a1 033e
00000120: 155c 9dbe 9364 b53e a52f 52bf 5b27 073e
00000130: 19e6 cabc 3097 cc3e 3e20 873e aa05 bd3e
00000140: c929 933d e054 10be 798a 6d3e c19c 48be
00000150: 1272 19bf ef9c 03bf a9f6 823e d085 d7be
00000160: e036 8c3e 9c9d 873e 5709 d5bd 1d09 c2be
00000170: 38ab 2cbe 884c 49bd eed5 49be 9c25 90bd
00000180: 2814 e5be 886a 63be ff7b 84be 8771 c4bd
00000190: d680 c33d 0191 f83c 781a a0bd 0215 05bf
000001a0: 1488 403f 2ebd edbd c0c1 d3be 0ce3 73bd
000001b0: 773a 853e a830 91be 4729 cfbd 14fb 313f
000001c0: cd3a 84be 5804 06be 807d f1bd a6f2 893e
000001d0: d077 863c 9eab 9bbe 41ad 253f a1ac 97be
000001e0: 3c0d acbd 3ff4 6dbe ff1b 4e3f e603 73be
000001f0: ff89 c23c cc3b 53bd f4b1 ae3e a762 f9bc
00000200: 0d8e 3dbd 040d 653d 636e b63d 08da a1bd
00000210: eb5c b7bb 6fe7 b33e 8cc0 04be 2846 a4bd
00000220: 054e c03e 0400 ad3d bc31 273e 7109 c1bc
00000230: 6b25 72be 2cee d5bd 8513 913e 609f 803e
00000240: ddf6 c13d 0429 123e 9e69 e83d b3dc 48be
00000250: 8f61 54bd 9fdf f9bd 5c08 273e f163 81be
00000260: 9627 7f3e c1de 753b acf7 173d 8f9b efbd
00000270: ded2 b13e c595 1abc 59f2 0fbe 8cbb 8abd
00000280: f8a0 47be a5ed 723e 6cc0 d0be 3fd0 cdbd
00000290: 87ae 10bd 4626 543e 8526 f3bd 47a3 49be
000002a0: 6d8d 52be 4675 2f3e 37e2 973d b5c9 5bbe
000002b0: 4b20 a3be a682 cb3c 47fe 323e ebc3 22be
000002c0: 7bb2 cfbd e7f3 283c 4553 f73e f9fc 64be
000002d0: 73ff a33e 8d7d cabd 9baf 3c3e d22f 863d
000002e0: 5290 9bbe 7fdf a8bd 075f d03d 551d bdbe
000002f0: 8ec3 d2bc b40b ebbc 46dd f1bc 10e6 c7bd
00000300: ef80 3c3e 7574 84be 0dd0 dc3d b0e0 97be
00000310: 11fb 86bd 5dc3 ce3d 4d0f a5be 68ae 52be
00000320: cfb6 56be 0b1c 41be fc0f 42be c929 8fbe
00000330: 499d 8c3e 424c 7d3e 349d f23e 85a1 243d
00000340: ce5d 87be 2a30 81bd 1e94 523d e320 e3be
00000350: 1a34 143e 898b 7cbd 7a20 3ebe 2dad 793e
00000360: 29e2 253e e3b1 0c3f 6a4a cebc 581b 6f3e
00000370: 1da1 383e 3ac4 173e 467e 603e e917 ab3e
00000380: 67b1 d0bc 4cc3 1fbe d4be 583e 51eb e4bd
00000390: e21e 843e 32fa d23d 781d 2f3e 47f6 41be
000003a0: 000b 4b3e ccfa 4bbc 6819 6f3e 078a 87bd
000003b0: 4775 713e 074c 623d b61e 83be 5142 21be
000003c0: 1440 bbbe b2dd 9d3e 7b4e 26bd a830 073f
000003d0: a2fa 0a3e d37a 0dbc 4498 b73d e757 65be
000003e0: 590f 84be 2eb2 d63e fd1b b43e 47b8 e1be
000003f0: 588c 3cbe 92f7 893c 4ee8 363f 0f6a 593e

bias f4 [64]
0.46138144 0.6992104 0.07987174 0.10467321 0.12538394 0.15398052 -0.60921305 -0.15497047
0.4116503 -0.55564 0.021797072 -0.021971576 -0.06835588 -0.37598726 -0.03204951 -0.26744956
-0.24465029 -0.2712547 0.092790194 -0.008150581 0.04293695 -0.107271835 0.43208826 -0.26552576
0.15287106 0.19735289 0.109462924 0.00847312 -0.41563573 -0.29876345 -0.10311913 0.42988947
0.2541103 0.3606238 0.0011482232 0.21021663 -0.10509054 0.2636282 0.33422664 0.5790392
-0.25719428 -0.018176274 -0.21557409 0.15613368 -0.07223389 -0.1320271 -0.030461138 0.3923533
0.05492729 -0.39349172 -0.13516554 -0.21803042 0.1304504 0.0886286 0.31078532 0.30071774
0.10140103 -0.1850695 0.014739534 0.036152374 0.09982647 0.09052049 0.49542126 0.28663874
00000000: 303a ec3e 74ff 323f cb93 a33d e85e d63d
00000010: a664 003e 12ad 1d3e 63f5 1bbf 94b0 1ebe
00000020: d4c3 d23e 6c3e 0ebf c68f b23c bcfd b3bc
00000030: 2bfe 8bbd 6781 c0be 5946 03bd 26ef 88be
00000040: 9b85 7abe e5e1 8abe c908 be3d 048a 05bc
00000050: a8de 2f3d 56b1 dbbd ac3a dd3e fef2 87be
00000060: 3b8a 1c3e e016 4a3e 192e e03d d7d2 0a3c
00000070: 35ce d4be 86f7 98be 1f30 d3bd 791a dc3e
00000080: bf1a 823e afa3 b83e fa7f 963a 0743 573e
00000090: b639 d7bd 47fa 863e c11f ab3e ea3b 143f
000000a0: f8ae 83be 69e6 94bc 74bf 5cbe 82e1 1f3e
000000b0: 5def 93bd 1d32 07be a389 f9bc 88e2 c83e
000000c0: 70fb 603d bf77 c9be d668 0abe 5e43 5fbe
000000d0: ca94 053e e982 b53d 411f 9f3e adf7 993e
000000e0: 58ab cf3d dc82 3dbe 167e 713c 8314 143d
000000f0: d271 cc3d cf62 b93d dba7 fd3e 50c2 923e

weight f4 [32, 64]
0.07639807 -0.0068539106 0.10533941 -0.11919039 0.0887185 -0.017502356 -0.18571274 0.02766249
0.14012975 -0.050478436 -0.039698474 -0.10118478 -0.11005964 0.093581945 0.2178858 -0.197777
-0.18110938 0.26831496 0.32632512 0.18239214 0.078347825 0.13253716 0.09360574 0.11545046
0.27694008 0.23190409 0.08755597 -0.1844124 -0.08658559 -0.35979986 0.3337618 0.29137063
0.11395455 0.058854084 0.020993415 0.38462523 -0.32730496 -0.37223956 -0.16058892 0.108551055
-0.060360055 -0.24390021 0.28513712 0.018946836 0.13950895 -0.080992445 -0.25494915 -0.15144806
-0.061191913 -0.12942813 0.1308004 -0.025755877 -0.1508342 -0.38092965 0.16470423 0.3808968
0.105441466 -0.017873088 0.022628844 -0.0071265893 -0.024939658 -0.20740488 0.17829198 -0.036426008
-0.06428849 -0.1825853 -0.0067157643 0.04621678 0.15035449 0.23245701 -0.03823475 0.14856738
0.029792666 -0.12247213 0.063837096 -0.06061943 0.10729474 0.2667439 0.13437821 -0.02098242
-0.005378392 0.05869742 0.097956546 0.064305924 -0.23942961 -0.059380583 -0.006931329 -0.009983931
0.25267914 0.23588036 -0.05450757 -0.083489105 0.026667027 -0.0049050655 0.22087996 -0.005224813
0.109590724 0.0061052484 -0.14691004 0.29763752 0.16510618 -0.13245952 -0.15103547 0.17676516
0.1822119 0.08474449 0.01193139 -0.027978543 0.0517363 0.1048661 -0.09796752 -0.020313503
0.0017809158 0.114879645 0.190924 0.24444957 -0.21780415 -0.16139108 0.038013168 0.14415725
0.2638964 0.052113254 0.08123963 -0.07133049 0.2313438 -0.08211415 -0.056201488 0.023975924
0.4178866 0.11865909 0.3493172 -0.14540155 -0.12739305 0.060963795 -0.38411954 -0.32081243
0.6043269 -0.82349116 -0.0024038085 -0.40524793 0.12928881 0.25398463 0.12971261 -0.7614277
-0.25856248 0.06585944 0.1944842 0.05949582 -0.16842781 0.005603967 0.22110146 0.25227994
0.2001639 -0.12183297 -0.039687883 -0.025109392 -0.77041435 -0.24162547 0.22269286 0.37835208
0.60723245 0.63800514 0.28248975 -0.17128287 -0.40318847 0.17209812 -0.10816635 -0.30792743
-0.38285944 0.014930014 0.121040724 -0.36539942 -0.18182942 -0.33415583 -0.5467922 0.37684318
-0.41493115 -0.67097443 -0.024082616 -0.24366917 -0.048425216 -0.33582976 0.56985873 0.26233417
0.30121538 0.10904966 -0.1352599 0.04788549 -0.09065358 -0.8071245 0.31852093 0.5169604
0.16632749 -0.26397607 0.17301863 0.21807437 0.09025896 -0.30875865 0.06883855 0.13084605
0.15637192 -0.2958052 -0.014999182 -0.05628068 0.100349836 -0.010015014 -0.040076412 0.013826286
-0.41478842 -0.22603194 0.22906692 0.19056307 -0.124085516 0.27440235 -0.074087195 -0.09337904
-0.030375795 0.0991526 0.32350534 -0.40466225 -0.038841244 -0.274727 -0.020984784 -0.8831819
0.17060854 0.25107756 -0.38112554 0.01828272 0.32127264 -0.4436027 0.07619186 -0.041579664
-0.26898882 0.25147077 0.25880235 -0.26185775 -0.049564365 -0.11965547 -0.121810235 -0.08146755
-0.14228007 -0.2789736 0.0100440895 0.024443083 0.1261038 -0.26640645 -0.06207313 0.21457635
0.18593107 -0.17550965 -0.12731262 -0.33506337 -0.088885136 0.38446483 0.23403168 0.13823953
00000000: 9776 9c3d c596 e0bb 30bc d73d 171a f4bd
00000010: 0cb2 b53d 1a61 8fbc 7b2b 3ebe 729c e23c
00000020: 2c7e 0f3e 7ac2 4ebd de9a 22bd f739 cfbd
00000030: f366 e1bd e4a7 bf3d 751d 5f3e 0e86 4abe
00000040: bd74 39be 9460 893e 1614 a73e 01c5 3a3e
00000050: d374 a03d d2b7 073e 5eb4 bf3d 4a71 ec3d
00000060: 17cb 8d3e 4478 6d3e 8b50 b33d 9bd6 3cbe
00000070: c953 b1bd b037 b8be d4e2 aa3e 882e 953e
00000080: 0161 e93d fb10 713d 62fa ab3c 99ed c43e
00000090: 8494 a7be 2f96 bebe 6c71 24be 0450 de3d
000000a0: 1b3c 77bd fac0 79be 7efd 913e 6536 9b3c
000000b0: 6fdb 0e3e 5edf a5bd b288 82be 3315 1bbe
000000c0: 5fa4 7abd cf88 04be 8af0 053e fdfd d2bc
000000d0: 4874 1abe 3609 c3be 3aa8 283e e804 c33e
000000e0: b2f1 d73d 956a 92bc 2060 b93c 2a86 e9bb
000000f0: 414e ccbc f261 54be 2c92 363e 7033 15bd
00000100: afa9 83bd a4f7 3abe ea0f dcbb ce4d 3d3d
00000110: 87f6 193e 3609 6e3e 0b9c 1cbd 0c22 183e
00000120: c00f f43c abd2 fabd 06bd 823d 144c 78bd
00000130: 58bd db3d a892 883e 719a 093e 53e3 abbc
00000140: 393d b0bb b56c 703d 719d c83d d3b2 833d
00000150: 092d 75be 0e39 73bd 3420 e3bb a493 23bc
00000160: 295f 813e 9f8a 713e 5443 5fbd 56fc aabd
00000170: cf74 da3c acba a0bb 5b2e 623e e834 abbb
00000180: 1a71 e03d 890e c83b 966f 16be f263 983e
00000190: 9811 293e 78a3 07be 0ba9 1abe ed01 353e
000001a0: c295 3a3e 858e ad3d e07b 433c 4233 e5bc
000001b0: 71e9 533d 0ac4 d63d 32a3 c8bd 8168 a6bc
000001c0: 9e6d e93a 0546 eb3d 9581 433e fd50 7a3e
000001d0: 0d08 5fbe b443 25be b2b3 1b3d f59d 133e
000001e0: 6e1d 873e b574 553d f760 a63d b815 92bd
000001f0: 64e5 6c3e 772b a8bd 8833 66bd 2869 c43c
00000200: 3cf5 d53e 8903 f33d b4d9 b23e 25e4 14be
00000210: 5373 02be 2cb5 793d 51ab c4be 8741 a4be
00000220: 2bb5 1a3f 51d0 52bf 3789 1dbb a87c cfbe
00000230: 4964 043e 460a 823e 62d3 043e edec 42bf
00000240: 4d62 84be 50e1 863d de26 473e e4b1 733d
00000250: 5778 2cbe 7ba1 b73b 6c68 623e d62a 813e
00000260: c4f7 4c3e 9083 f9bd c38f 22bd 36b2 cdbc
00000270: e039 45bf ab6c 77be 9909 643e 5db7 c13e
00000280: 9673 1b3f 4e54 233f 7fa2 903e c764 2fbe
00000290: b86e cebe 7d3a 303e 5286 ddbd aaa8 9dbe
000002a0: 2706 c4be 049d 743c 33e4 f73d a215 bbbe
000002b0: 7e31 3abe 7916 abbe 93fa 0bbf 97f1 c03e
000002c0: db71 d4be fbc4 2bbf e848 c5bc 6984 79be
000002d0: 8559 46bd e1f1 abbe 43e2 113f aa50 863e
000002e0: e738 9a3e 6e55 df3d 9281 0abe 9323 443d
000002f0: 96a8 b9bd b69f 4ebf 2d15 a33e 8457 043f
00000300: c151 2a3e df27 87be cc2b 313e e34e 5f3e
00000310: b1d9 b83d 9d15 9ebe 3afb 8c3d 82fc 053e
00000320: f61f 203e c773 97be 21bf 75bc 9286 66bd
00000330: 3784 cd3d 0316 24bc 2a27 24bd a687 623c
00000340: 265f d4be eb74 67be 8590 6a3e f722 433e
00000350: 8c20 febd 777e 8c3e 07bb 97bd 833d bfbd
00000360: a9d6 f8bc 8510 cb3d 7ea2 a53e e42f cfbe
00000370: ff17 1fbd 04a9 8cbe 48e8 abbc 3618 62bf
00000380: 01b4 2e3e 3d8d 803e e322 c3be a5c5 953c
00000390: d97d a43e e51f e3be 7a0a 9c3d 704f 2abd
000003a0: e7b8 89be c7c0 803e be81 843e 3812 86be
000003b0: 0104 4bbd ed0d f5bd a577 f9bd 75d8 a6bd
000003c0: deb1 11be a1d5 8ebe f78f 243c dc3c c83c
000003d0: 5b21 013e 6d66 88be 6540 7ebd e7b9 5b3e
000003e0: b764 3e3e cdb8 33be 3d5e 02be 6d8d abbe
000003f0: 6909 b6bd 93d8 c43e 00a6 6f3e aa8e 0d3e

bias f4 [32]
0.06820209 0.061130695 0.19726329 -0.43537754 0.18139966 0.23528297 -0.17938176 -0.32713878
-0.023214849 0.05093907 -0.015662892 0.00045545754 0.24886225 -0.32190612 -0.048002776 -0.0059031737
-0.15579905 0.05609434 0.151073 -0.3304233 -0.05628382 0.09925625 -0.05752732 -0.07111959
-0.11648162 0.15276854 -0.09345941 0.05564637 -0.18141155 0.27686438 0.20266601 0.086018555
00000000: 8aad 8b3d 2e64 7a3d 63ff 493e cee9 debe
00000010: d5c0 393e 05ee 703e daaf 37be bc7e a7be
00000020: 112d bebc 7ca5 503d 774f 80bc 7aca ee39
00000030: bfd5 7e3e e1d0 a4be 8f9e 44bd 696f c1bb
00000040: c989 1fbe 2ec3 653d e1b2 1a3e 3e2d a9be
00000050: dd89 66bd dc46 cb3d c4a1 6bbd 26a7 91bd
00000060: ea8d eebd 5b6f 1c3e a667 bfbd 73ed 633d
00000070: f3c3 39be 2bc1 8d3e ae87 4f3e 7f2a b03d

weight f4 [2, 32]
0.1931711 -0.04392523 0.1860804 -0.14445344 0.20486754 0.041136555 -0.13923308 -0.15427646
0.39582497 -0.17087168 -0.09969953 0.16277893 -0.28706148 -0.07881129 0.03889543 -0.11001335
-0.14840448 0.041475296 0.07467635 0.0714088 -0.41361052 0.2212576 -0.044725284 -0.23078692
0.3057939 -0.32471287 -0.143672 0.26813447 -0.22281268 0.15131539 -0.0031518978 -0.19348198
-0.08444901 -0.21323997 0.22175078 0.007013547 0.15430936 0.18146674 -0.4092262 -0.18731485
-0.12102511 -0.24299996 0.14892392 0.0038268566 0.16038795 -0.14780216 -0.22399521 0.051957093
0.28732917 -0.19338407 0.24821773 0.05162747 0.19503747 -0.06552615 0.041602675 0.15634663
-0.18300486 0.19346905 -0.06931637 -0.098425284 -0.22059867 0.40409976 -0.2205221 -0.048243165
00000000: a5ce 453e f1ea 33bd dc8b 3e3e 9aeb 13be
00000010: ccc8 513e ce7e 283d 1e93 0ebe a6fa 1dbe
00000020: 92a9 ca3e fcf8 2ebe 442f ccbd 85af 263e
00000030: b9f9 92be d067 a1bd d050 1f3d ae4e e1bd
00000040: 58f7 17be 00e2 293d eaef 983d c73e 923d
00000050: c2c4 d3be 5a91 623e dc31 37bd 6853 6cbe
00000060: 0591 9c3e c440 a6be c11e 13be ec48 893e
00000070: 0229 64be 6cf2 1a3e 1290 4ebb 2420 46be
00000080: 9af3 acbd 945b 5abe a312 633e e5d1 e53b
00000090: 4603 1e3e 6bd2 393e 1986 d1be 77cf 3fbe
000000a0: 03dc f7bd fbd4 78be 837f 183e 00cc 7a3b
000000b0: bd3c 243e 7359 17be 005f 65be f6d0 543d
000000c0: cf1c 933e 7906 46be ca2c 7e3e 5377 533d
000000d0: e7b7 473e 9332 86bd 9167 2a3d 5519 203e
000000e0: a065 3bbe c01c 463e bef5 8dbd 3293 c9bd
000000f0: 9ee4 61be 2ae6 ce3e 8cd0 61be a09a 45bd

bias f4 [2]
0.18805622 -0.036438543
00000000: cf91 403e 9540 15bd

weight f4 [32, 2]
0.6873168 0.23833095 -0.41686466 -0.19079307 0.33763185 0.27003416 -0.46588665 0.7301599
-0.778739 0.46050018 -0.001467917 0.42796454 0.25098374 -0.19023912 -0.017396586 -0.42862344
0.47794247 0.1282468 -0.3866004 -0.54716283 -0.7555792 0.49609005 0.1601185 -0.46284875
0.5166098 0.0012912827 0.0029683718 -0.5239262 -0.055183504 -0.35970512 -0.44145295 0.09428092
-0.93550694 0.4600326 0.12745275 0.43291548 -0.32222736 -0.6039619 0.5702896 -0.9227509
-0.37551615 0.07842402 0.07579013 -0.38376427 0.22484386 0.47744977 -0.51518065 -0.22416905
0.8310798 0.37755847 0.57552105 -0.15743762 0.30276564 -0.66270936 -0.29192445 -0.42453125
-0.19907908 -0.25535288 0.44727477 -0.37349725 0.44120738 0.011365341 0.37231442 0.4238032
00000000: fef3 2f3f 070d 743e 496f d5be 425f 43be
00000010: 15de ac3e eb41 8a3e b288 eebe c2eb 3a3f
00000020: 705b 47bf aec6 eb3e 1f67 c0ba 2b1e db3e
00000030: f180 803e 0bce 42be 4983 8ebc 8874 dbbe
00000040: e0b4 f43e 2153 033e 7df0 c5be dd12 0cbf
00000050: a36d 41bf 84ff fd3e 1bf6 233e 83fa ecbe
00000060: 8a40 043f 4240 a93a 0489 423b 0720 06bf
00000070: 1908 62bd 452b b8be 1f06 e2be 5b16 c13d
00000080: 627d 6fbf 6589 eb3e f982 023e 19a7 dd3e
00000090: fcfa a4be 3f9d 1abf 80fe 113f 6739 6cbf
000000a0: a743 c0be c69c a03d db37 9b3d c07c c4be
000000b0: 783d 663e 4c74 f43e e1e2 03bf 928c 65be
000000c0: a5c1 543f 584f c13e 5955 133f 5437 21be
000000d0: 1904 9b3e 52a7 29bf 1f77 95be 295c d9be
000000e0: 63db 4bbe 9dbd 82be 3301 e53e 083b bfbe
000000f0: efe5 e13e b235 3a3c ff9f be3e bcfc d83e

bias f4 [32]
0.6907881 0.3109449 -0.63891375 -0.90254027 0.6372645 0.057618987 -0.17320642 0.042394932
-0.695055 -1.0602525 0.33770013 -0.8365519 -0.6626135 0.5756562 -0.2450153 -0.7192188
0.07473793 0.36570314 0.6999576 0.09107439 0.6357911 0.5753309 -0.6101825 0.9536914
0.75241023 1.0179763 -0.049131267 -0.8305117 0.27158436 1.09185 0.2360147 -0.41395226
00000000: 7dd7 303f 2c34 9f3e da8f 23bf e10c 67bf
00000010: c423 233f e301 6c3d 065d 31be 4fa6 2d3d
00000020: 20ef 31bf 5bb6 87bf 08e7 ac3e 4428 56bf
00000030: 0aa1 29bf 345e 133f 4ae5 7abe b91e 38bf
00000040: 3310 993d 713d bb3e 6c30 333f 3685 ba3d
00000050: 35c3 223f e348 133f ec34 1cbf 1f25 743f
00000060: f59d 403f 0c4d 823f de3d 49bd 6a9c 54bf
00000070: 1b0d 8b3e bec1 8b3f d6ad 713e 8df1 d3be

weight f4 [64, 32]
-0.48271552 0.30086702 -0.25080097 0.33245793 0.18852158 -0.1367161 -0.093300916 -0.1025051
-0.27794206 0.18735106 0.22419412 0.14678024 -0.20665266 -0.23133552 0.15140028 0.41504526
0.19673757 -0.079842605 0.085639 0.07268309 0.16345549 0.06392 0.14930587 0.012922323
-0.53600574 -0.2548913 0.12497656 0.27886564 0.22708143 -0.26540023 -0.26288033 -0.18775386
-0.3123933 -0.17476104 0.110026576 0.22416353 -0.26898938 -0.34785882 0.24664912 0.12649535
0.1366733 0.79247916 0.03494476 0.6437946 0.38359895 0.03319834 0.591325 0.39327
-0.0016423821 -0.57924455 0.03471103 -0.18621199 -0.23858632 0.05422917 0.17654508 -0.15805471
-0.38501638 -0.41545096 0.05426937 0.71590394 0.03512491 -0.23412836 -0.117697366 -0.018048435
-0.41344368 0.32935736 -0.11696095 0.086154364 -0.23683187 -0.06934842 -0.14187647 0.11858834
0.019557452 0.12328041 -0.20605925 0.10183919 -0.06660131 0.1598941 0.12665626 0.2954321
-0.36878347 -0.11463027 0.2653715 0.4521021 0.14107624 0.0839875 -0.030199638 0.21845125
-0.5388898 0.05965098 0.08683537 0.104999565 0.1971323 -0.07767638 -0.25509024 -0.24795537
0.09317056 -0.016534878 0.22730203 -0.09983534 -0.17907977 0.1445028 0.08868401 -0.31531152
-0.009738227 -0.058004025 -0.2538108 -0.14242375 0.21982254 -0.41257793 -0.25744563 0.314965
-0.22601415 -0.021239895 -0.41238686 0.2662485 -0.21922037 -0.43692645 0.30750477 -0.15945528
0.05953676 -0.3204602 0.2171403 0.02727557 -0.3323466 -0.25763658 0.095366865 0.055439543
0.040550195 0.15945752 -0.14580916 -0.038570456 0.52894664 0.16226673 -0.4221986 0.16853447
-0.44798964 0.04269954 0.36344576 -0.3210821 -0.613185 -0.058803055 -0.19049942 -0.015259522
0.09675991 -0.15209791 -0.007106314 -0.24291274 0.6288692 -0.0035212056 -0.25879604 0.42921644
0.034796 0.033124678 -0.23235974 -0.18648674 0.18934345 -0.15631014 -0.22168922 -0.063328154
0.2276069 -0.110315174 0.26929694 0.09979212 0.31624508 0.3815896 -0.03688703 -0.3573861
0.075667165 -0.18869928 0.28927478 -0.12027201 -0.20339882 -0.19888808 -0.26367164 -0.09541171
0.29015514 0.113879725 -0.43257755 -0.2614099 -0.06493204 -0.08948939 0.43449053 -0.016565392
0.039060283 -0.1765878 -0.3399703 -0.016450621 -0.2589192 0.12238215 0.11814472 0.23636657
-0.29247093 -0.12344435 0.0027519148 -0.1730591 -0.037573762 -0.26633164 0.35867113 0.32117417
0.1890722 0.3861387 -0.25722402 0.2567548 0.05681028 0.07608269 0.25130573 -0.15459223
0.06390542 -0.23310049 -0.08689516 0.20026541 -0.2865831 0.1337194 -0.16020896 -0.0720673
-0.24090618 -0.011546186 0.124308124 0.40211388 -0.00971479 0.22146012 0.031489108 -0.105921276
-0.45786923 0.018126097 -0.1351008 0.17907593 -0.31272128 -0.20003355 0.17960045 0.11169322
0.098463304 0.40110534 -0.34082195 0.23979203 0.06486294 -0.32832757 0.14721394 0.43930107
-0.06391535 -0.1924194 -0.0012510346 0.19156791 -0.18541986 -0.19145693 0.23085968 -0.01676048
-0.32689968 -0.46273273 0.12844081 0.43139735 0.14330454 -0.38372532 -0.31174734 -0.099587776
00000000: 7d26 f7be 3e0b 9a3e fc68 80be ed37 aa3e
00000010: cd0b 413e 4eff 0bbe 8d14 bfbd 32ee d1bd
00000020: 6c4e 8ebe f5d8 3f3e 2593 653e 8f4d 163e
00000030: c19c 53be 38e3 6cbe ad08 1b3e d080 d43e
00000040: 9375 493e 8584 a3bd 8063 af3d dfda 943d
00000050: e060 273e 7de8 823d a3e3 183e 27b8 533c
00000060: ac37 09bf 1d81 82be b6f3 ff3d 7ac7 8e3e
00000070: 0988 683e 8ae2 87be 4098 86be 8c42 40be
00000080: 04f2 9fbe 8ff4 32be 9d55 e13d 208b 653e
00000090: fab8 89be 8d1a b2be 9691 7c3e ff87 013e
000000a0: 16f4 0b3e eadf 4a3f 3d22 0f3d b9cf 243f
000000b0: 1567 c43e fcfa 073d 1361 173f af5a c93e
000000c0: 3345 d7ba 5f49 14bf 272d 0e3d 5bae 3ebe
000000d0: f94f 74be 681f 5e3d 3cc8 343e 18d9 21be
000000e0: de20 c5be fdb5 d4be 8f49 5e3d 7b45 373f
000000f0: 23df 0f3d 58bf 6fbe 510b f1bd 50da 93bc
00000100: e4ae d3be 87a1 a83e 3989 efbd b371 b03d
00000110: 0e84 72be 8b06 8ebd 1148 11be 72de f23d
00000120: f336 a03c 717a fc3d 3201 53be 1191 d03d
00000130: 4566 88bd 47bb 233e 2eb2 013e e042 973e
00000140: 30d1 bcbe 46c3 eabd c6de 873e ed79 e73e
00000150: 4a76 103e a301 ac3d 3b65 f7bc afb1 5f3e
00000160: aff4 09bf 9654 743d bed6 b13d 030a d73d
00000170: 0ddd 493e cb14 9fbd 309b 82be 03e8 7dbe
00000180: 35d0 be3d 2774 87bc ddc1 683e 7976 ccbd
00000190: b060 37be 8bf8 133e f69f b53d 8370 a1be
000001a0: 168d 1fbc a195 6dbd 7df3 81be 88d7 11be
000001b0: 2919 613e 6a3d d3be eacf 83be 1843 a13e
000001c0: 4170 67be 4aff adbc 5f24 d3be b951 883e
000001d0: 4e7b 60be d3b4 dfbe 4471 9d3e 3f48 23be
000001e0: d1dc 733d 5c13 a4be 075a 5e3e 0471 df3c
000001f0: 5529 aabe f1e8 83be b44f c33d 9314 633d
00000200: f617 263d d548 233e ff4e 15be 0efc 1dbd
00000210: 0c69 073f 4029 263e 6a2a d8be 4d94 2c3e
00000220: e65e e5be b6e5 2e3d 9015 ba3e df64 a4be
00000230: b1f9 1cbf 79db 70bd 4812 43be 1303 7abc
00000240: 0f2a c63d 8ebf 1bbe 15dc e8bb 1ebe 78be
00000250: 92fd 203f 07c4 66bb ea80 84be 42c2 db3e
00000260: 4086 0e3d bead 073d b6ef 6dbe 61f6 3ebe
00000270: 40e3 413e c40f 20be 8002 63be 31b2 81bd
00000280: c811 693e ecec e1bd 4ae1 893e d05f cc3d
00000290: e0ea a13e b65f c33e db16 17bd 50fb b6be
000002a0: 63f7 9a3d 623a 41be d31b 943e 2c51 f6bd
000002b0: c847 50be 51a9 4bbe f8ff 86be 3767 c3bd
000002c0: 378f 943e c639 e93d ce7a ddbe 85d7 85be
000002d0: 17fb 84bd 3746 b7bd 8b75 de3e 25b4 87bc
000002e0: adfd 1f3d 6fd3 34be 9610 aebe 74c3 86bc
000002f0: 0f91 84be 7ea3 fa3d dcf5 f13d 140a 723e
00000300: c0be 95be 64d0 fcbd 7859 343b 6836 31be
00000310: f2e6 19bd 9f5c 88be bea3 b73e f170 a43e
00000320: 259c 413e f9b3 c53e deb2 83be 5d75 833e
00000330: e5b1 683d 3ed1 9b3d 25ab 803e 6d4d 1ebe
00000340: d8e0 823d e5b1 6ebe 17f6 b1bd 6012 4d3e
00000350: 05bb 92be bded 083e d10d 24be 0598 93bd
00000360: 1cb0 76be 372c 3dbc 4295 fe3d dfe1 cd3e
00000370: c82a 1fbc 71c6 623e b9fa 003d 41ed d8bd
00000380: d66d eabe 2e7d 943c dd57 0abe ae5f 373e
00000390: 011d a0be 98d5 4cbe 2ee9 373e 6abf e43d
000003a0: 21a7 c93d ae5d cd3e 3780 aebe 0b8c 753e
000003b0: dcd6 843d 8d1a a8be 40bf 163e 12ec e03e
000003c0: 0de6 82bd 9709 45be c1f9 a3ba 612a 443e
000003d0: b4de 3dbe 490d 44be 7b66 6c3e 464d 89bc
000003e0: 655f a7be 4eeb ecbe fd85 033e 1de0 dc3e
000003f0: 6dbe 123e a577 c4be 599d 9fbe adf4 cbbd

bias f4 [64]
-0.04869988 -0.09401585 0.18943308 -0.20275813 0.26782167 -0.05493785 0.09947013 0.04608047
0.031137343 -0.10475795 0.016630147 -0.05849931 0.12528527 -0.2053189 -0.13241875 -0.047345787
0.4052967 -0.014490415 -0.25153 0.0986412 0.13649678 -0.081564575 0.09745605 -0.12906878
0.15662332 0.090127856 0.034063946 0.06875967 -0.02917766 0.049731195 0.14493941 0.09429042
0.029384011 -0.009413248 -0.05358787 0.25181627 -0.16742674 -0.14305599 -0.063533075 -0.3833551
0.17600806 -0.035369594 -0.018647349 -0.13667159 0.06435361 -0.18287249 -0.1244989 -0.03428561
-0.27898502 0.045055766 0.0873963 -0.009757615 -0.20196113 0.0020337084 -0.02801856 -0.18402146
-0.0749897 -0.29761323 0.029073382 -0.13830724 0.08432319 0.03668642 -0.29485324 0.17228451
00000000: 8679 47bd 628b c0bd bffa 413e d49f 4fbe
00000010: ec1f 893e 8306 61bd ffb6 cb3d e0be 3c3d
00000020: be13 ff3c 568b d6bd f23b 883c f99c 6fbd
00000030: c84a 003e 1e3f 52be c898 07be a8ed 41bd
00000040: 0d83 cf3e 3569 6dbc 8ac8 80be 6604 ca3d
00000050: d0c5 0b3e 540b a7bd 0a97 c73d 9b2a 04be
00000060: dd61 203e f494 b83d a386 0b3d dfd1 8c3d
00000070: fd05 efbc f0b2 4b3d ff6a 143e 561b c13d
00000080: bdb6 f03c 063a 1abc f47e 5bbd 10ee 803e
00000090: ea71 2bbe 457d 12be a11d 82bd 1f47 c4be
000000a0: 753b 343e b5df 10bd 53c2 98bc a3f3 0bbe
000000b0: d3cb 833d ed42 3bbe 47f9 febd 116f 0cbd
000000c0: 20d7 8ebe 658c 383d d5fc b23d 67de 1fbc
000000d0: e6ce 4ebe f747 053b 2e87 e5bc 1f70 3cbe
000000e0: 3394 99bd c360 98be 4d2b ee3c 6aa0 0dbe
000000f0: a3b1 ac3d 8044 163d 01f7 96be 5a6b 303e

weight f4 [128, 64]
0.018283881 0.0059820763 -0.17189884 -0.027930738 0.1425776 -0.071445145 -0.18124598 0.17533356
0.29256657 0.13366501 -0.05258702 -0.48741212 0.36844265 -0.24526975 -0.11202476 0.046858888
-0.52093637 0.2738896 0.59848 -0.23062438 -0.1674983 0.07214302 -0.054084178 0.7430584
0.07800169 0.47870722 0.02408981 0.11685355 -0.33441025 0.06965711 -0.23981036 0.4691067
-0.37063202 0.089375965 -0.10241591 0.038997762 -0.2921785 0.066725604 0.1937367 0.12645355
-0.35663956 0.40500316 0.13294658 -0.32205182 -0.09917965 0.13672277 0.07537024 -0.42815426
0.57981753 0.28346592 -0.1377269 -0.35857865 0.26137966 0.62227845 -0.6592155 0.046589762
-0.48585725 0.06227761 0.12589699 0.3810714 -0.38724837 0.015062232 0.38175017 0.30313757
-0.17329316 0.2250962 -0.25180334 -0.04074707 -0.11647835 0.23022303 -0.06807157 0.061487436
-0.3331873 -0.23073252 0.04009486 0.4581951 -0.41806772 0.22145832 0.12558515 0.12026744
0.63006806 -0.09486934 -0.58369344 -0.17619202 0.23990236 -0.018529207 -0.12821144 -1.0620766
0.13709246 -0.62502015 0.16635606 -0.043200098 0.036286734 -0.41835037 0.353881 -0.21645883
0.19745578 -0.03946851 -0.10520205 -0.19783606 -0.009624381 0.27781093 0.002883002 0.046415266
0.32128125 -0.24422045 0.2856921 -0.1729166 -0.22946872 -0.060613964 0.07824953 0.26599422
-0.16604501 -0.09616824 -0.17916822 0.27693525 0.11980781 -0.35286516 0.44223258 -0.10304927
0.29141876 0.2123141 0.2517818 0.0883705 0.073091075 -0.15612787 -0.6476503 0.108373985
-0.19413868 -0.186563 0.020466648 0.10453891 0.121057376 -0.14994875 0.0019889555 -0.11500855
-0.26724178 -0.30158553 0.14111719 0.26217684 -0.36181074 0.17953663 -0.07073693 -0.37555376
0.7196889 -0.33026993 -0.55206126 0.37149802 0.4602746 0.05119817 -0.010234967 -0.34384465
-0.29413587 -0.5802058 -0.11891719 -0.17184342 -0.064591095 -0.30310434 0.3878911 -0.35827464
0.6232932 -0.019352213 0.04978806 0.003679616 0.016208239 0.082577884 0.0025226974 -0.17313918
0.363727 -0.14896198 -0.20721859 0.40205902 0.28878632 -0.03012047 0.16612689 0.3297941
-0.8194093 -0.1808453 0.034419548 0.22395422 -0.16751638 -0.041422024 0.058967147 -0.10882934
0.22921082 -0.0519191 0.06381329 -0.5145544 0.29127553 0.03106162 -0.71872073 -0.21904923
0.54391474 0.12053831 -0.034141697 -0.064764544 -0.15717544 0.07620802 -0.3013476 0.1989816
0.27827758 0.60623467 0.039770897 -0.61941594 0.3780915 -0.2090576 -0.043372583 0.2712267
-0.9326118 0.43545976 0.93367946 -0.14657117 -0.5550132 0.100040555 -0.06096373 0.42284107
0.2713574 0.49472538 -0.024655767 0.46124494 -0.07531614 0.15949419 -0.5158819 -0.0043749083
-0.71223366 -0.16478369 -0.21486208 -0.23989506 -0.17447968 0.04147724 0.07808485 0.25600794
-0.598583 0.11942701 -0.046644792 -0.12948006 0.05844627 0.540298 0.14953296 -0.43867195
0.9205221 0.20348361 0.0155570125 -0.5711017 0.26939988 -0.023723772 -0.61088896 0.27301443
-0.45251286 0.06547141 0.0733501 0.50647694 -0.6517385 -0.060218003 0.8263504 0.30483976
00000000: 14c8 953c 4b05 c43b 4006 30be 01cf e4bc
00000010: ddff 113e d551 92bd 8c98 39be a48a 333e
00000020: 49cb 953e 7bdf 083e 7d65 57bd 158e f9be
00000030: 84a4 bc3e fe27 7bbe 3d6d e5bd 1bef 3f3d
00000040: 165c 05bf 423b 8c3e fc35 193f cc28 6cbe
00000050: ad84 2bbe b8bf 933d 5f87 5dbd 1339 3e3f
00000060: 5abf 9f3d 1d19 f53e fe57 c53c ea50 ef3d
00000070: d237 abbe 63a8 8e3d d990 75be c12e f03e
00000080: 7bc3 bdbe bf0a b73d 6fbf d1bd 1ebc 1f3d
00000090: 6c98 95be 6fa7 883d ea62 463e 0a7d 013e
000000a0: 7699 b6be 935c cf3e 2623 083e fae3 a4be
000000b0: b31e cbbd 0e01 0c3e b65b 9a3d 0937 dbbe
000000c0: ec6e 143f 7222 913e 4808 0dbe 9f97 b7be
000000d0: 8ed3 853e a44d 1f3f 59c2 28bf e8d4 3e3d
000000e0: 48c2 f8be cf16 7f3d 24eb 003e ca1b c33e
000000f0: 6b45 c6be 94c7 763c c274 c33e d934 9b3e
00000100: c373 31be 9e7f 663e 5eec 80be 66e6 26bd
00000110: 338c eebd 96bf 6b3e 1b69 8bbd 40da 7b3d
00000120: 8797 aabe 2545 6cbe 823a 243d 8c98 ea3e
00000130: f90c d6be f8c5 623e 6599 003e c74e f63d
00000140: 244c 213f db4a c2bd ef6c 15bf ae6b 34be
00000150: f7a8 753e 90ca 97bc dc49 03be 20f2 87bf
00000160: f761 0c3e 5201 20bf 3e59 2a3e 96f2 30bd
00000170: 66a1 143d 0532 d6be e42f b53e 62a7 5dbe
00000180: d931 4a3e bba9 21bd 2c74 d7bd 8995 4abe
00000190: 94af 1dbc 3c3d 8e3e bff0 3c3b ef1d 3e3d
000001a0: fa7e a43e ed14 7abe 3c46 923e 0d11 31be
000001b0: d9f9 6abe 5946 78bd 4a41 a03d 6530 883e
000001c0: b407 2abe dbf3 c4bd e077 37be 75ca 8d3e
000001d0: cc5d f53d beaa b4be 4f6c e23e 7f0b d3bd
000001e0: d734 953e de68 593e 8be9 803e 98fb b43d
000001f0: c6b0 953d fcdf 1fbe 69cc 25bf 2ef3 dd3d
00000200: 4acc 46be 5f0a 3fbe aca9 a73c 7f18 d63d
00000210: eeec f73d 2a8c 19be 2359 023b 9a89 ebbd
00000220: ead3 88be 6b69 9abe 0681 103e 0b3c 863e
00000230: 423f b9be 73d8 373e 86de 90bd 9548 c0be
00000240: 883d 383f 2419 a9be e353 0dbf fd34 be3e
00000250: 1da9 eb3e 2cb5 513d 90b0 27bc 680c b0be
00000260: fa98 96be 5e88 14bf db8a f3bd b9f7 2fbe
00000270: 5648 84bd 7e30 9bbe aa99 c63e c66f b7be
00000280: 2590 1f3f 8888 9ebc 91ee 4b3d b625 713b
00000290: 24c7 843c 981e a93d d753 253b 664b 31be
000002a0: 6d3a ba3e 7d89 18be 1c31 54be aeda cd3e
000002b0: cddb 933e 34bf f6bc 2b1d 2a3e c6da a83e
000002c0: cfc4 51bf 832f 39be 83fb 0c3d 4154 653e
000002d0: 6a89 2bbe 24aa 29bd 8987 713d ebe1 debd
000002e0: 3eb6 6a3e 1fa9 54bd 8bb0 823d d6b9 03bf
000002f0: 1122 953e f074 fe3c 15fe 37bf 714e 60be
00000300: ff3d 0b3f cadc f63d 2ad8 0bbd 46a3 84bd
00000310: 99f2 20be f312 9c3d 3c4a 9abe d5c1 4b3e
00000320: 667a 8e3e 3232 1b3f cfe6 223d 0b92 1ebf
00000330: 3695 c13e 3213 56be 73a7 31bd 3ade 8a3e
00000340: a6bf 6ebf 95f4 de3e 9e05 6f3f c116 16be
00000350: 5815 0ebf 10e2 cc3d 1bb5 79bd a07e d83e
00000360: 5bef 8a3e a54c fd3e e4fa c9bc 4c28 ec3e
00000370: 593f 9abd 7252 233e d610 04bf 645b 8fbb
00000380: f254 36bf 0ebd 28be ce04 5cbe 0da7 75be
00000390: cdaa 32be 0ae4 293d f3ea 9f3d 7913 833e
000003a0: bc3c 19bf 2696 f43d 9c0e 3fbd 6c96 04be
000003b0: 5b65 6f3d f850 0a3f 2b1f 193e 9c99 e0be
000003c0: 56a7 6b3f 025e 503e d7e2 7e3c b933 12bf
000003d0: c8ee 893e 5b58 c2bc 3863 1cbf 8cc8 8b3e
000003e0: c4af e7be e015 863d 9438 963d 79a8 013f
000003f0: 56d8 26bf 27a7 76bd b38b 533f f513 9c3e

bias f4 [128]
-0.1941456 -0.3780332 0.2519694 -0.37189645 -0.33937734 0.19731674 0.22834429 0.101938285
0.04749565 -0.11382008 -0.11409832 0.1424096 0.0008595947 -0.1020905 -0.05655329 -0.13844667
0.07536862 0.17216206 0.045256767 0.08140027 -0.41511372 0.19166648 -0.043286134 0.13472693
-0.044619203 -0.16672182 -0.23902816 0.09912237 -0.19410774 0.01606749 -0.3134765 0.15934713
-0.5597346 -0.25695625 0.18240657 0.2816731 -0.17230101 0.13950741 0.22942482 -0.2509419
-0.14836942 -0.07542357 0.034602437 -0.11615856 0.046617497 0.13382468 0.0054074223 -0.0046890317
0.396377 0.14027044 0.74745333 0.102300525 -0.20557022 -0.054408878 0.17188849 0.27461678
-0.051789083 0.24931495 0.08604334 -0.15187839 -0.22858931 0.02002787 -0.02225949 -0.34312356
0.028749814 0.16994023 -0.09590105 0.23162805 0.3997339 0.112259075 0.198362 0.24449229
-0.023765044 -0.0042484594 0.18542305 -0.07435041 0.004963854 0.117202885 -0.20994838 -0.22429992
-0.39169538 0.16418897 0.034078665 0.16871247 -0.05780731 0.18631415 0.2347167 0.25543773
-0.018037606 -0.10746927 0.14729711 -0.0009095457 -0.021527633 0.30024946 0.07347118 -0.116211094
0.20830047 -0.019768314 0.086999916 0.47392207 -0.09327203 -0.27361748 -0.06430431 0.08370742
0.07923203 -0.079784565 -0.19111156 -0.31062612 0.17157868 -0.017319722 0.027097262 0.054557286
0.037448984 0.079094544 0.14284651 0.042564075 0.035158396 0.27243426 0.12758985 0.12342915
-0.83538395 -0.29020953 0.11964853 0.04008044 0.020373967 -0.011463906 -0.3564259 -0.06698823
00000000: 1bce 46be 918d c1be 2202 813e 3669 bebe
00000010: dec2 adbe 660d 4a3e 16d3 693e 05c5 d03d
00000020: cc8a 423d 811a e9bd 61ac e9bd d2d3 113e
00000030: 6c56 613a d314 d1bd 6ca4 67bd f7c4 0dbe
00000040: dd5a 9a3d 404b 303e 295f 393d 2fb5 a63d
00000050: c989 d4be 3844 443e cd4c 31bd dbf5 093e
00000060: a0c2 36bd 20b9 2abe ccc3 74be ab00 cb3d
00000070: 2ec4 46be f89f 833c fe7f a0be e52b 233e
00000080: c44a 0fbf c58f 83be cac8 3a3e 7537 903e
00000090: ad6f 30be 08db 0e3e 57ee 6a3e 757b 80be
000000a0: 27ee 17be ac77 9abd 49bb 0d3d 8ae4 edbd
000000b0: fdf1 3e3d 5609 093e bf30 b13b 73a6 99bb
000000c0: edf1 ca3e 0ea3 0f3e 1a59 3f3f f082 d13d
000000d0: 0081 52be d8db 5ebd 8903 303e 929a 8c3e
000000e0: ca20 54bd 6b4c 7f3e 7e37 b03d 0286 1bbe
000000f0: 5113 6abe 7d11 a43c 8959 b6bc e4ad afbe
00000100: bb84 eb3c d004 2e3e c567 c4bd e72f 6d3e
00000110: eca9 cc3e 16e8 e53d 681f 4b3e 305c 7a3e
00000120: e9ae c2bc a936 8bbb 8adf 3d3e 0745 98bd
00000130: d3a7 a23b 1108 f03d b5fc 56be e1ae 65be
00000140: 4c8c c8be 2721 283e 1296 0b3d f6c2 2c3e
00000150: 5cc7 6cbd 23c9 3e3e 9359 703e bcc8 823e
00000160: 9ac3 93bc d918 dcbd 0ed5 163e 946e 6eba
00000170: b85a b0bc 4cba 993e 0f78 963d 1500 eebd
00000180: b84c 553e 29f1 a1bc 032d b23d eaa5 f23e
00000190: 6805 bfbd 9717 8cbe fab1 83bd cc6e ab3d
000001a0: 6744 a23d 1766 a3bd c0b2 43be 630a 9fbe
000001b0: 52b2 2f3e 17e2 8dbc 14fb dd3c 7677 5f3d
000001c0: 1b64 193d 52fc a13d 5b46 123e ab57 2e3d
000001d0: 4002 103d 817c 8b3e eaa6 023e 6cc8 fc3d
000001e0: b9db 55bf 5896 94be 4a0a f53d 632b 243d
000001f0: 4ee7 a63c 1bd3 3bbc 757d b6be 2031 89bd
